…
2), data)wd=1e-6%time learn.fit(1e-2, 2, wds=wd)\n%time learn.fit(1e-2, 3, cycle_len=1, cycle_mult=2, wds=wd)\n%time learn.fit(1e-2, 8, cycle_len=4, wds=wd)log_preds,y = learn.TTA()\npreds = np.mean(np.exp(log_preds),0)metrics.log_loss(y,preds), accuracy(preds,y)\n*(0.44507397166057938, 0.84909999999999997)*\n```", "```py\nPATH = \"data/dogscats/\"\nsz = 224\narch = resnet34  # <-- Name of the function \nbs = 64m = arch(pretrained=True) # Get a model w/ pre-trained weight loaded\nm*ResNet(\n  (conv1): Conv2d (3, 64,* ***kernel_size=(7, 7)****, stride=(2, 2), padding=(3, 3), bias=False)\n  (bn1): BatchNorm2d(64, eps=1e-05, momentum=0.1, affine=True)\n  (relu): ReLU(inplace)\n  (maxpool): MaxPool2d(kernel_size=(3, 3), stride=(2, 2), padding=(1, 1), dilation=(1, 1))\n  (****layer1****): Sequential(\n    (0): BasicBlock(\n      (conv1): Conv2d (64, 64, kernel_size=(3, 3), stride=(1, 1), padding=(1, 1), bias=False)\n      (bn1): BatchNorm2d(64, eps=1e-05, momentum=0.1, affine=True)\n      (relu): ReLU(inplace)\n      (conv2): Conv2d (64, 64, kernel_size=(3, 3), stride=(1, 1), padding=(1, 1), bias=False)\n      (bn2): BatchNorm2d(64, eps=1e-05, momentum=0.1, affine=True)\n    )\n    (1): BasicBlock(\n      (conv1): Conv2d (64, 64, kernel_size=(3, 3), stride=(1, 1), padding=(1, 1), bias=False)\n      (bn1): BatchNorm2d(64, eps=1e-05, momentum=0.1, affine=True)\n      (relu): ReLU(inplace)\n      (conv2): Conv2d (64, 64, kernel_size=(3, 3), stride=(1, 1), padding=(1, 1), bias=False)\n      (bn2): BatchNorm2d(64, eps=1e-05, momentum=0.1, affine=True)\n    )\n    (2): BasicBlock(\n      (conv1): Conv2d (64, 64, kernel_size=(3, 3), stride=(1, 1), padding=(1, 1), bias=False)\n      (bn1): BatchNorm2d(64, eps=1e-05, momentum=0.1, affine=True)\n      (relu): ReLU(inplace)\n      (conv2): Conv2d (64, 64, kernel_size=(3, 3), stride=(1, 1), padding=(1, 1), bias=False)\n      (bn2): BatchNorm2d(64, eps=1e-05, momentum=0.1, affine=True)\n    )\n  )\n  (****layer2****): Sequential(\n    (0): BasicBlock(\n      (conv1): Conv2d (64, 128, kernel_size=(3, 3),* ***stride=(2, 2)****, padding=(1, 1), bias=False)\n      (bn1): BatchNorm2d(128, eps=1e-05, momentum=0.1, affine=True)\n      (relu): ReLU(inplace)\n      (conv2): Conv2d (128, 128, kernel_size=(3, 3), stride=(1, 1), padding=(1, 1), bias=False)\n      (bn2): BatchNorm2d(128, eps=1e-05, momentum=0.1, affine=True)\n      (downsample): Sequential(\n        (0): Conv2d (64, 128, kernel_size=(1, 1), stride=(2, 2), bias=False)\n        (1): BatchNorm2d(128, eps=1e-05, momentum=0.1, affine=True)\n      )\n    )\n    (1): BasicBlock(\n      (conv1): Conv2d (128, 128, kernel_size=(3, 3), stride=(1, 1), padding=(1, 1), bias=False)\n      (bn1): BatchNorm2d(128, eps=1e-05, momentum=0.1, affine=True)\n      (relu): ReLU(inplace)\n      (conv2): Conv2d (128, 128, kernel_size=(3, 3), stride=(1, 1), padding=(1, 1), bias=False)\n      (bn2): BatchNorm2d(128, eps=1e-05, momentum=0.1, affine=True)\n    )\n    (2): BasicBlock(\n      (conv1): Conv2d (128, 128, kernel_size=(3, 3), stride=(1, 1), padding=(1, 1), bias=False)\n      (bn1): BatchNorm2d(128, eps=1e-05, momentum=0.1, affine=True)\n      (relu): ReLU(inplace)\n      (conv2): Conv2d (128, 128, kernel_size=(3, 3), stride=(1, 1), padding=(1, 1), bias=False)\n      (bn2): BatchNorm2d(128, eps=1e-05, momentum=0.1, affine=True)\n    )\n    (3): BasicBlock(\n      (conv1): Conv2d (128, 128, kernel_size=(3, 3), stride=(1, 1), padding=(1, 1), bias=False)\n      (bn1): BatchNorm2d(128, eps=1e-05, momentum=0.1, affine=True)\n      (relu): ReLU(inplace)\n      (conv2): Conv2d (128, 128, kernel_size=(3, 3), stride=(1, 1), padding=(1, 1), bias=False)\n      (bn2): BatchNorm2d(128, eps=1e-05, momentum=0.1, affine=True)\n    )\n  )* *...* *(avgpool): AvgPool2d(kernel_size=7, stride=7, padding=0, ceil_mode=False, count_include_pad=True)\n  (fc): Linear(in_features=512, out_features=1000)\n)*\n```", "```py\nm = nn.Sequential(*children(m)[:-2], \n                  nn.Conv2d(512, 2, 3, padding=1), \n                  nn.AdaptiveAvgPool2d(1), Flatten(), \n                  nn.LogSoftmax())\n```", "```py\ntfms = tfms_from_model(arch, sz, aug_tfms=transforms_side_on, max_zoom=1.1)\ndata = ImageClassifierData.from_paths(PATH, tfms=tfms, bs=bs)learn = *
…
