["```py\nlearn = ConvLearner.pretrained(arch, data, ps=0.5, precompute=True)\n```", "```py\nlearn *Sequential(\n  (0): BatchNorm1d(1024, eps=1e-05, momentum=0.1, affine=True)\n  (1): Dropout(p=0.5)\n  (2): Linear(in_features=1024, out_features=512)\n  (3): ReLU()\n  (4): BatchNorm1d(512, eps=1e-05, momentum=0.1, affine=True)\n  (5): Dropout(p=0.5)\n  (6): Linear(in_features=512, out_features=120)\n  (7): LogSoftmax()\n)*\n```", "```py\n*Dropout(p=0.5)*\n```", "```py\nlearn = ConvLearner.pretrained(arch, data, **ps=0.5**, precompute=True)\n```", "```py\n[2\\.      **0.3521**   **0.55247**  0.84189]\n```", "```py\nSequential(\n  (0): BatchNorm1d(4096, eps=1e-05, momentum=0.1, affine=True)\n  (1): Linear(in_features=4096, out_features=512)\n  (2): ReLU()\n  (3): BatchNorm1d(512, eps=1e-05, momentum=0.1, affine=True)\n  (4): Linear(in_features=512, out_features=120)\n  (5): LogSoftmax()\n)\n```", "```py\nlearn = ConvLearner.pretrained(arch, data, ps=0., precompute=True, \n            **xtra_fc=[]**); learn *Sequential(\n  (0): BatchNorm1d(1024, eps=1e-05, momentum=0.1, affine=True)\n  (1): Linear(in_features=1024, out_features=120)\n  (2): LogSoftmax()\n)*learn = ConvLearner.pretrained(arch, data, ps=0., precompute=True, \n            **xtra_fc=[700, 300]**); learn*Sequential(\n  (0): BatchNorm1d(1024, eps=1e-05, momentum=0.1, affine=True)\n  (1): Linear(in_features=1024, out_features=****700****)\n  (2): ReLU()\n  (3): BatchNorm1d(700, eps=1e-05, momentum=0.1, affine=True)\n  (4): Linear(in_features=700, out_features=****300****)\n  (5): ReLU()\n  (6): BatchNorm1d(300, eps=1e-05, momentum=0.1, affine=True)\n  (7): Linear(in_features=300, out_features=120)\n  (8): LogSoftmax()\n)*\n```", "```py\nlearn = ConvLearner.pretrained(arch, data, ps=[0., 0.2],\n            precompute=True, xtra_fc=[512]); learn*Sequential(\n  (0): BatchNorm1d(4096, eps=1e-05, momentum=0.1, affine=True)\n  (1): Linear(in_features=4096, out_features=512)\n  (2): ReLU()\n  (3): BatchNorm1d(512, eps=1e-05, momentum=0.1, affine=True)\n  (4): Dropout(p=0.2)\n  (5): Linear(in_features=512, out_features=120)\n  (6): LogSoftmax()\n)*\n```", "```py\ncat_vars = ['Store', 'DayOfWeek', 'Year', 'Month', 'Day',\n            'StateHoliday', 'CompetitionMonthsOpen', 'Promo2Weeks',\n            'StoreType', 'Assortment', 'PromoInterval', \n            'CompetitionOpenSinceYear', 'Promo2SinceYear', 'State',\n            'Week', 'Events', 'Promo_fw', 'Promo_bw', \n            'S
…
